tests/data/mnist_params.npz (npz, 26943 bytes, 10 tensors)

c1.weight f4 [8, 1, 3, 3]
0	0x3ea558ee	0.3229441
1	0x3ec26396	0.37966603
2	0x3d8ad305	0.0677853
3	0xbe59521e	-0.21222731
4	0xbe577cb4	-0.21043664
5	0x3e8d2d34	0.2757355
6	0xbe835e38	-0.2565782
7	0xbda4ea4a	-0.080524996
8	0xbe342590	-0.17592454
9	0xbe842e6d	-0.2581667
10	0x3dca12df	0.098668806
11	0xbeb600b1	-0.35547403
12	0xbdab1c43	-0.08355
13	0x3e49db34	0.19712526
14	0x3e127f85	0.14306457
15	0x3e7de2c2	0.24793532
16	0x3e3d607e	0.1849384
17	0x3e8247e7	0.25445482
18	0x3da5871e	0.08082412
19	0xbe1024e9	-0.1407658
20	0xbdfb7794	-0.12278667
21	0xbd321675	-0.043478448
22	0xbeaa2632	-0.33232266
23	0x3e035bbc	0.12827963
24	0xbd31a009	-0.043365512
25	0xbe850173	-0.25977668
26	0xbe3ed1f2	-0.18634775
27	0xbdd8caad	-0.10585532
28	0x3d5a8f51	0.053359333
29	0xbe65de93	-0.22448187
30	0x3db2994e	0.08720647
31	0x3e4aa28b	0.19788568
32	0x3d9a9e89	0.075497694
33	0xbe9eac7c	-0.3099097
34	0xbe8b1e71	-0.27171662
35	0xbe304b93	-0.1721633
36	0x3eda004a	0.42578346
37	0xbe097b0f	-0.1342585
38	0xbdd2d3b6	-0.10294287
39	0xbe40ead8	-0.18839586
40	0xbe856a7f	-0.26057813
41	0xbe019234	-0.12653428
42	0x3e8af8e4	0.27143013
43	0xbe284442	-0.16432288
44	0xbb5641c9	-0.003269302
45	0x3e494e67	0.19658814
46	0x3e123d0f	0.14281105
47	0xbceb85f2	-0.028750394
48	0xbe1b3d9b	-0.1516022
49	0x3b0530c2	0.0020323251
50	0x3e800392	0.25002724
51	0x3e425576	0.18977913
52	0x3dad6326	0.08466177
53	0x3e313a7c	0.17307466
54	0xbe103f85	-0.14086731
55	0x3da3ed24	0.08004215
56	0xbe2fd2fb	-0.17170326
57	0xbd8e62b4	-0.0695242
58	0xbd65dfae	-0.05612152
59	0xbe3e831a	-0.18604699
60	0x3df92f0d	0.12167177
61	0x3e47242e	0.19447395
62	0xbc8d4f5e	-0.01724976
63	0xbeaabde5	-0.33348003
64	0x3ddceed8	0.10787743
65	0xbe325e47	-0.17418776
66	0x3e988a2d	0.2979292
67	0xbe8e5866	-0.27801818
68	0x3e11894d	0.14212532
69	0xbe4452be	-0.19172189
70	0x3d11cbf7	0.035594907
71	0xbe1fafe8	-0.15594447

c1.bias f4 [8]
0	0x3dedd3d3	0.11612668
1	0x3e192b51	0.1495793
2	0xbdc7feef	-0.097654216
3	0x3cb7495d	0.02237385
4	0x3de412f6	0.11136429
5	0xbde6b182	-0.11264326
6	0x3e1f797e	0.1557369
7	0xbe96287a	-0.29327756

c2.weight f4 [8, 8, 3, 3]
0	0xbd88a45e	-0.066719756
1	0xbdb3b492	-0.087746754
2	0x3da85345	0.082190074
3	0xbd44cde6	-0.048047923
4	0xbd9655d9	-0.07340593
5	0x3d3f928f	0.04677063
6	0xba7e73db	-0.0009706595
7	0xbda53523	-0.08066776
8	0xbd131f12	-0.035918303
9	0xbd11f866	-0.03563728
10	0xbd78d55b	-0.060750347
11	0x3cb0d55c	0.021586113
12	0xbde61026	-0.11233549
13	0xbdcfe7d0	-0.101516366
14	0x3d14f251	0.036363903
15	0x3d1f375f	0.038871165
16	0xbd7acf60	-0.061232924
17	0xbc3e5003	-0.011615756
18	0x3d64d843	0.055870306
19	0xbdea8782	-0.11451627
20	0x3bd4a96c	0.006489923
21	0x3db433f4	0.08798972
22	0xbc40e183	-0.011772516
23	0x3dc5c8f8	0.09657472
24	0xbd9f59ce	-0.07780801
25	0xbde0445a	-0.10950537
26	0xbdf06b12	-0.11739172
27	0xbd22ad57	-0.03971609
28	0x39635288	0.00021679152
29	0x3db24231	0.08704031
30	0x3d358b1e	0.044322126
31	0xbbea42bd	-0.007149069
32	0xbd921c0e	-0.07134257
33	0xbcaf7850	-0.021419674
34	0x3d6491cb	0.0558031
35	0xbd16721a	-0.03672991
36	0xbd71296d	-0.058877397
37	0x3d80a222	0.062809244
38	0x3dab4969	0.08363611
39	0x3d1b2a44	0.037882105
40	0xbd15535b	-0.036456447
41	0xbd71608f	-0.058929976
42	0xbcb7720c	-0.022393249
43	0x3dc7de0e	0.097591504
44	0xbbfcc754	-0.0077141915
45	0xbe004aef	-0.12528585
46	0x3d0b06f7	0.03394219
47	0x3c891087	0.016731514
48	0xbc5ab897	-0.013349674
49	0xbcb020fa	-0.0215001
50	0xbd48d031	-0.04902667
51	0xbd0d09cc	-0.03443317
52	0x3b8b3b7a	0.0042490335
53	0xbdf7b77c	-0.12095544
54	0x3d2ba010	0.041900694
55	0x3d96bc0f	0.07360088
56	0x3b1274b5	0.0022347395
57	0xbd2c2a9a	-0.042032816
58	0xbd674d93	-0.056470465
59	0xbd4f0819	-0.050544832
60	0xbd286318	-0.04111013
61	0xbcc6e3a0	-0.024278462
62	0x3da9daed	0.0829371
63	0x3c5a9540	0.013341248
64	0xbc23e2ac	-0.010002773
65	0x3d70937b	0.0587344
66	0xbb1163e1	-0.0022184777
67	0xbdaa54be	-0.083169445
68	0xbd3782b2	-0.044802375
69	0xbd0aede7	-0.033918288
70	0x3b0decb6	0.0021655983
71	0x3c2a50af	0.010395213
72	0x3e22a1e7	0.15882073
73	0x3e2077df	0.15670727
74	0x3e5fad20	0.21843386
75	0xbb78cf2c	-0.003796528
76	0x3e0e15b9	0.13875474
77	0x3e08988d	0.13339444
78	0x3c4136c7	0.011792845
79	0xbdff4ad6	-0.12465446
80	0xbd3e7edd	-0.046507705
81	0xbd277582	-0.04088355
82	0xbe0fdd8c	-0.14049357
83	0xbe300a3c	-0.17191404
84	0x3c4655f0	0.01210545
85	0x3ce747b4	0.028232433
86	0x3d0dbd34	0.034604266
87	0x3e53a184	0.20667082
88	0x3df4ed93	0.11959376
89	0x3d72888d	0.059212256
90	0x3db30bd2	0.08742489
91	0x3cde5d81	0.027144196
92	0x3daf191d	0.08549712
93	0x3cc23b25	0.023709843
94	0x3d120ab5	0.035654742
95	0x3d350476	0.044193707
96	0x3d4dd97a	0.05025623
97	0x3d2aeebf	0.041731592
98	0xbdbd8be6	-0.09255199
99	0x3dafcdb8	0.085841596
100	0xbd9ab39e	-0.075537905
101	0xbdd83611	-0.10557187
102	0x3a7983ce	0.00095182366
103	0xbdd5feef	-0.10449015
104	0x3beffd7d	0.0073239193
105	0x3d9f9360	0.077917814
106	0xbd83b67a	-0.06431289
107	0xbd492107	-0.049103763
108	0xbd27b242	-0.040941484
109	0xbdd9af03	-0.10629084
110	0xbd1fb4dc	-0.03899084
111	0x3d06474a	0.03278283
112	0xbe18622f	-0.14881204
113	0xbd84151f	-0.06449341
114	0xbd0075f0	-0.031362474
115	0x3cc3dac5	0.023908028
116	0xbd4f1423	-0.050556313
117	0xbe04439d	-0.12916417
118	0xbd777280	-0.06041193
119	0xbe201147	-0.15631591
120	0xbd84f059	-0.06491155
121	0x3b880f36	0.004152204
122	0x3d5de15f	0.05417001
123	0x3e07ed5d	0.1327414
124	0xbd772880	-0.06034136
125	0xbd09f90d	-0.03368478
126	0x3d6b8541	0.057500128
127	0x3dfa5b83	0.12224486
128	0xbd402f80	-0.0469203
129	0xbd79b152	-0.06096012
130	0x3c4d4c89	0.012530454
131	0x3dec9af6	0.11552994
132	0x3d0a205b	0.033722263
133	0x3d5243f3	0.051334333
134	0x3d179fa6	0.037017487
135	0xbdc0e8e0	-0.094194174
136	0x3dbd874b	0.09254321
137	0x3d829383	0.06375792
138	0x3be7d66f	0.007075123
139	0x3d6b8d61	0.057507876
140	0x3db010a8	0.08596927
141	0x3d8c0fe0	0.068389654
142	0xbdd7f6a4	-0.1054509
143	0x3c74be0a	0.014937887
144	0x3e064840	0.13113499
145	0xbd366f24	-0.044539586
146	0xbca14f8a	-0.019691247
147	0xbd5d5968	-0.054040343
148	0x3cd9438c	0.026521467
149	0x3c1ee54c	0.009698223
150	0xbd39591b	-0.045250993
151	0xbd94c142	-0.072634235
152	0xbd2a60c3	-0.041596185
153	0x3d036704	0.032080665
154	0x3d42545c	0.047443733
155	0x3d74dda4	0.059781685
156	0xbdad869a	-0.08472939
157	0xbdc81a8b	-0.09770688
158	0xbe01ae9e	-0.12664267
159	0xba8f6304	-0.0010939543
160	0xbdc8042f	-0.09766423
161	0x3db9a2c0	0.09064245
162	0x3d4f0849	0.05054501
163	0x3ca4e546	0.020128857
164	0x3d714d6f	0.058911737
165	0x3dba90ec	0.09109673
166	0xbda01520	-0.07816529
167	0x3ce126f7	0.0274844
168	0xbd9327df	-0.07185339
169	0xbdf1ed09	-0.11812789
170	0xbdd1626a	-0.10223849
171	0x3d96a2bd	0.073552586
172	0x3d3dfc50	0.046383202
173	0xbdde8c9e	-0.10866664
174	0x3d7fd3a0	0.06245768
175	0xbd23d4dd	-0.039997924
176	0xbd1eeda6	-0.038800858
177	0xbd8a0075	-0.067383684
178	0xbde3b206	-0.1111794
179	0xbdd61b45	-0.1045442
180	0x3cc32bd4	0.02382461
181	0xbcd2657d	-0.025683159
182	0xbc975ed3	-0.018477833
183	0x3d1a4308	0.037661582
184	0x3df0749e	0.11740993
185	0x3d427c3d	0.047481764
186	0x3d0d055f	0.03442895
187	0x3dcf209f	0.10113644
188	0x3db9bf7c	0.09069726
189	0xbd6dddbb	-0.058072787
190	0x3c45d332	0.012074279
191	0xbdb141a0	-0.08655095
192	0xbb90fdfc	-0.0044248085
193	0x3d8c0ef3	0.06838789
194	0xbc8c6334	-0.017137147
195	0xbe132ece	-0.14373323
196	0xbd2e3b95	-0.04253729
197	0xbc967819	-0.018367814
198	0xbd980107	-0.07422071
199	0x3d8efa89	0.069813795
200	0xbcd3e435	-0.025865654
201	0xbd044e46	-0.03230121
202	0xbca785f4	-0.020449616
203	0x3d494a30	0.049143016
204	0xbdf60871	-0.12013329
205	0x3d38db1f	0.045130845
206	0xbdc77d04	-0.09740642
207	0x3d86081f	0.06544518
208	0xbdac0704	-0.083997756
209	0x3c572a6b	0.013132672
210	0x3d7e8937	0.062142577
211	0xbcaadc86	-0.020857107
212	0x3d5d0eee	0.053969316
213	0x3da2380f	0.079208486
214	0xbd670219	-0.056398485
215	0x3d6ff8bf	0.058586832
216	0xbcd54149	-0.026032107
217	0xbb8ea3b3	-0.0043530106
218	0xbd27282c	-0.040809795
219	0x3dbda4b4	0.0925993
220	0xbd69025b	-0.056887012
221	0x3dd57500	0.104227066
222	0xbd951b4c	-0.07280597
223	0x3dafbc74	0.085808665
224	0xbc4e2209	-0.012581357
225	0x3d40a2d5	0.04703029
226	0x3add5504	0.0016886299
227	0xbbc3bafd	-0.0059732185
228	0xbda8245e	-0.082100615
229	0xbd90fbec	-0.070793
230	0xbd1564a3	-0.036472928
231	0xbddacce2	-0.106836095
232	0x3d18477f	0.03717756
233	0xbcc006e8	-0.023440793
234	0xbcac81d7	-0.021058006
235	0xbbff3f29	-0.0077895117
236	0x3de8e1f6	0.11371224
237	0x3cb08f70	0.021552771
238	0x3c093f87	0.0083769625
239	0xbcd5a967	-0.026081754
240	0x3d5b2d22	0.05350984
241	0xbbbc594e	-0.0057479506
242	0xbdd25d60	-0.10271716
243	0x3da077e1	0.07835365
244	0x3cda1c14	0.026624717
245	0xbdd15d62	-0.102228895
246	0x3c9c6d12	0.019094978
247	0xbd206e6d	-0.03916781
248	0xbda0ea10	-0.07857144
249	0x3d3ce101	0.046113018
250	0x3d81010f	0.0629903
251	0x3d8b5246	0.06802802
252	0xbdc4ca3d	-0.096088864
253	0x3c7f81a5	0.0155948745
254	0x3af2500d	0.0018486992
255	0x3df22fef	0.11825549

c2.bias f4 [8]
0	0xbc2136ff	-0.009839772
1	0x3dd3b31f	0.10336899
2	0x3c5b9b6e	0.013403757
3	0xbda4f33c	-0.08054206
4	0x3d4fd5e9	0.05074111
5	0x3d423ac8	0.04741934
6	0x3d2b2dc3	0.04179169
7	0x3b1e68b0	0.0024171285

c3.weight f4 [16, 8, 3, 3]
0	0xbd48590a	-0.04891304
1	0xbd20e81d	-0.03928386
2	0xbb6fb76d	-0.0036577836
3	0x3dca51ee	0.09878908
4	0x3d16b6d5	0.036795456
5	0xbd9e2ebd	-0.07723758
6	0x3d40ab72	0.047038503
7	0x3d56caba	0.05243943
8	0x3dded788	0.10880953
9	0x3d4f634e	0.050631814
10	0x3df42d1d	0.11922667
11	0x3be891db	0.0070974655
12	0xbbd2b7d4	-0.0064306054
13	0xbd94e365	-0.072699346
14	0xbd2e85d5	-0.0426081
15	0x3e045df7	0.1292647
16	0x3dfa6862	0.12226941
17	0xbda717f0	-0.081588626
18	0xbdb966ad	-0.09052787
19	0x3d9f0eeb	0.07766517
20	0x3d0e9f6a	0.034819998
21	0xbc32573d	-0.010885057
22	0x3d601685	0.054708976
23	0xbc529c25	-0.012854611
24	0xbd01711e	-0.031602018
25	0xbc9cb5da	-0.019129682
26	0x3dae0bc8	0.08498341
27	0x3ded6251	0.11591018
28	0xbdcaae17	-0.09896486
29	0xbd29582a	-0.041343845
30	0xbd588f6a	-0.052871145
31	0x3d2c8474	0.042118505
32	0xbd295245	-0.041338224
33	0xbd8da83e	-0.06916855
34	0xbde65d19	-0.11248226
35	0xbdee6e29	-0.11642105
36	0xbd64d0aa	-0.05586306
37	0x3dab3e1e	0.08361457
38	0x3d33048a	0.0437055
39	0x3d6814cf	0.05666047
40	0xbd940a9a	-0.072285846
41	0xbdc162a5	-0.09442643
42	0x3d657649	0.05602101
43	0xbda0b1e1	-0.07846428
44	0x3d74c118	0.05975446
45	0x3d84c656	0.06483142
46	0xbdd71e4c	-0.105038255
47	0xbdb8ccac	-0.09023413
48	0xbddeaeec	-0.108732074
49	0x3af6dbc1	0.0018833802
50	0xbda11b47	-0.07866531
51	0xbd178758	-0.03699431
52	0x3dda0448	0.10645348
53	0xbc1d3bb0	-0.00959675
54	0x3d57334d	0.05253916
55	0x3c83e014	0.01609806
56	0x3c8a0c19	0.016851472
57	0x3ceeccf1	0.029150458
58	0xbde92270	-0.113835216
59	0xbb6b3482	-0.0035889451
60	0xbdb5f507	-0.08884626
61	0x3db0c8fa	0.08632083
62	0xbd7b30bf	-0.061325785
63	0x3a468268	0.00075725326
64	0xbe160c43	-0.14653115
65	0xbe19d398	-0.15022123
66	0x3ddccbb3	0.1078104
67	0x3d3f4c5b	0.046703678
68	0x3c77567d	0.015096304
69	0xbdfabf8b	-0.12243565
70	0xbda0b33c	-0.07846686
71	0x3cd5407f	0.02603173
72	0x3d947072	0.0724801
73	0xbcf6b5e1	-0.030116023
74	0x3d7d7e67	0.061888125
75	0x3ceb3abc	0.02871453
76	0x3ac947cc	0.001535648
77	0x3c8e0e0d	0.017340684
78	0x3dbf6305	0.09345058
79	0xbc97fd95	-0.018553535
80	0xbd1f8a71	-0.038950387
81	0xbd22d2e6	-0.03975191
82	0x3c6dcaca	0.014513681
83	0xbe11c6fb	-0.14236061
84	0x399adfc5	0.0002953989
85	0xbd363ebe	-0.04449343
86	0xbdb1da14	-0.08684173
87	0xbd4ff1fa	-0.050767876
88	0x3d958b58	0.07301968
89	0x3d95bf36	0.07311861
90	0xbd43882f	-0.047737297
91	0x3d5bcb24	0.053660527
92	0x3df5d214	0.1200296
93	0x3d01a429	0.031650696
94	0x3d247064	0.040146247
95	0xbb165e31	-0.0022944326
96	0xbddf5f26	-0.1090682
97	0x3d8f0fa2	0.069854036
98	0x3dd8f0ba	0.1059279
99	0x3b13ab3b	0.0022532481
100	0x3d6b80b3	0.057495784
101	0xbde3d986	-0.11125474
102	0x3d25fe75	0.040525872
103	0x3dc078e8	0.09398061
104	0x3d84c8e3	0.064836286
105	0x3d669ffe	0.056304924
106	0xbd950c56	-0.072777435
107	0xbdb9190b	-0.0903798
108	0x3d17fb74	0.03710504
109	0x3ca89aa5	0.020581553
110	0x3c311b08	0.010809667
111	0x3ca8fb1a	0.020627547
112	0xbdde6cb6	-0.10860579
113	0x3d2c46db	0.04205976
114	0x3c31b725	0.010846888
115	0xbd673406	-0.056446098
116	0xbdb43a29	-0.08800156
117	0xbc99e83e	-0.0187875
118	0xbd04f0ff	-0.032456394
119	0x3d9217e9	0.07133467
120	0xbc9d3aa0	-0.019192994
121	0xbbe0d6ed	-0.0068615586
122	0x3c8e3fd2	0.017364416
123	0x3dbc766b	0.09202274
124	0x3d65225b	0.055940967
125	0x3dd1f794	0.102523
126	0xbd95dbbf	-0.07317304
127	0xbcfea527	-0.03108461
128	0xbda902ff	-0.082525246
129	0xbdd21835	-0.102585234
130	0xbd4416a2	-0.047873147
131	0x3dbef70c	0.09324464
132	0x3d80d753	0.0629107
133	0x3d0c394a	0.034234323
134	0x3de6e571	0.11274231
135	0x3e176904	0.14786154
136	0x3d028e80	0.03187418
137	0xbdfdce73	-0.12392893
138	0x3d9c672b	0.07636865
139	0xbe03e2db	-0.12879507
140	0xbe0f7879	-0.140108
141	0x3dd739de	0.10509084
142	0xbd97fed5	-0.07421652
143	0x3d40461d	0.046941865
144	0x3d401f3e	0.046904795
145	0x3cf1ce1e	0.02951723
146	0xbd7dba55	-0.06194528
147	0x3db22986	0.08699326
148	0xbc91245e	-0.017717537
149	0xbde0f878	-0.10984892
150	0x3deb0722	0.1147597
151	0x3de9d064	0.114167005
152	0xbdedb36a	-0.11606486
153	0x3d530f93	0.051528525
154	0xbbaf8f4e	-0.0053576594
155	0x3d0d27d9	0.03446183
156	0x3ce0011f	0.027344285
157	0xbaf59bb7	-0.0018738423
158	0xbd5f508e	-0.054520182
159	0xbc312b8b	-0.010813604
160	0x3d8a3daa	0.06750043
161	0xbd341af5	-0.04397102
162	0xbdc3b705	-0.095563926
163	0xbd730484	-0.05933048
164	0x3d90cb94	0.070700794
165	0xbc18abc0	-0.009318292
166	0xbdca8661	-0.09888912
167	0xbd82264d	-0.063549615
168	0xbcc5eb66	-0.024160098
169	0x3b78e116	0.0037975959
170	0x3dc5033a	0.09619756
171	0xbd07e5d1	-0.033178154
172	0xbd57e56a	-0.05270902
173	0xbd03afee	-0.0321502
174	0x3da488e6	0.08033924
175	0xbd5edb42	-0.05440832
176	0x3d8ab182	0.06772138
177	0x3d537c42	0.051632173
178	0xbcdd8f7e	-0.027045961
179	0x3d10ceb9	0.035353396
180	0x3d99785e	0.07493661
181	0xbd9a7d0a	-0.075433806
182	0x3cb3991d	0.021923596
183	0x3dbf92d7	0.09354179
184	0xbdb6b6e1	-0.089216
185	0xbde6d96b	-0.11271938
186	0xbc25c8eb	-0.010118703
187	0x3c303d8f	0.010756864
188	0xbd93534e	-0.071936235
189	0xbd82959c	-0.06376192
190	0xbd4d4b4d	-0.05012064
191	0xbc8c6f58	-0.017142937
192	0xbdd870af	-0.10568368
193	0x3d0cf4d8	0.03441319
194	0xbdf48a12	-0.11940397
195	0xbdcf487b	-0.101212464
196	0x3cd40221	0.025879921
197	0xbd6bd4ea	-0.057576098
198	0x3ce52cc0	0.02797544
199	0x3d023f21	0.031798486
200	0x3da32094	0.07965198
201	0x3c36f2ba	0.011166269
202	0x3da6f13f	0.08151483
203	0xbd1166bc	-0.035498366
204	0xbe09128b	-0.1338598
205	0xbdbed512	-0.09317984
206	0xbd4c0ed2	-0.04981882
207	0x3ddc00aa	0.10742314
208	0xbd37f626	-0.04491248
209	0xbc84e0c9	-0.016220467
210	0xbd5614ef	-0.052266058
211	0xbb94d9a1	-0.004542545
212	0x3c9418cc	0.01807823
213	0x3d1464ae	0.036228828
214	0x3d983220	0.074314356
215	0x3d46e037	0.04855367
216	0x3da00dc5	0.07815126
217	0xbd9201ab	-0.071292244
218	0xbd356932	-0.044289775
219	0x3d8c93bb	0.06864115
220	0xbd6eca0c	-0.058298156
221	0x3dcc1209	0.099643774
222	0x3d5ce5fc	0.053930268
223	0x3db9f480	0.09079838
224	0xbdbe45a1	-0.092906244
225	0xbd9414d0	-0.07230532
226	0x3d3938b0	0.045220077
227	0x3e4539ac	0.19260281
228	0x3dad0cfa	0.08449741
229	0xbdbc8491	-0.092049725
230	0x3da4e6bf	0.08051824
231	0x3c3c4bca	0.011492679
232	0xbd9449b5	-0.07240621
233	0xbd0146f3	-0.031561803
234	0xbc36e695	-0.0111633735
235	0xbd57912a	-0.052628674
236	0xbdbbc725	-0.09168843
237	0xbe06508b	-0.13116662
238	0xbd7d9348	-0.061908036
239	0xbcee7977	-0.029110653
240	0xbd7e239c	-0.06204568
241	0xbcd1f0a9	-0.025627451
242	0x3d94680e	0.07246409
243	0x3c195edf	0.009360998
244	0xbd8e7a75	-0.069569506
245	0x3d9836ef	0.07432353
246	0x3d88a16a	0.06671412
247	0x3d2e977f	0.042624947
248	0x3cb51d56	0.022108715
249	0xbd8e0eb6	-0.069364
250	0x3ca09651	0.019602926
251	0x3dae2421	0.08502985
252	0x3d6d8e29	0.057996903
253	0xbcbeec80	-0.023306131
254	0x3ddaa4a8	0.10675937
255	0xbd7a191d	-0.061059106

c3.bias f4 [16]
0	0x3d1bd091	0.0380407
1	0x3c8eac8d	0.017416263
2	0x3c5931be	0.013256488
3	0x3d180374	0.03711267
4	0x3de44a18	0.11146945
5	0x3d57762c	0.05260293
6	0x3c1e39c3	0.009657326
7	0xbc3142bd	-0.010819134
8	0x3c86d19d	0.016457373
9	0xbdd129da	-0.10213061
10	0x3ddf2a0d	0.108966924
11	0x3d5e582e	0.054283313
12	0xbd8f94ef	-0.07010829
13	0xbd2ae6a8	-0.041723877
14	0xbd214012	-0.039367743
15	0x3d36e2a2	0.044649728

c4.weight f4 [16, 16, 3, 3]
0	0xbdb66406	-0.08905797
1	0x3c4290d8	0.011875354
2	0xbb898bef	-0.0041975896
3	0xbdbf3b1a	-0.093374446
4	0x3d14555e	0.036214225
5	0xbd70aee8	-0.058760554
6	0x3d1d1ae9	0.03835574
7	0x3d8a0a9c	0.06740305
8	0x3c9fa062	0.019485656
9	0x3d2e5de2	0.042570002
10	0xbb265fe0	-0.0025386736
11	0x3d7490af	0.059708294
12	0x3d60a6e0	0.054846644
13	0x3c3b0d2c	0.011416715
14	0x3d883e65	0.06652526
15	0xbd15c178	-0.03656146
16	0x3d047bd7	0.032344665
17	0xbdb68603	-0.089122795
18	0xbdcbf07f	-0.0995798
19	0xbdfdf286	-0.12399773
20	0xbc458fb5	-0.012058188
21	0xbd052967	-0.032510187
22	0x3d582619	0.052770708
23	0x3d3a110d	0.045426417
24	0xbb0ae716	-0.0021194867
25	0x3d8e9924	0.06962803
26	0x3c847be7	0.016172362
27	0xbd0fe273	-0.03512807
28	0xbd54ab59	-0.051921222
29	0xbd94eeb1	-0.07272089
30	0xbcc02e93	-0.023459708
31	0xbd699946	-0.05703094
32	0x3d69a8c4	0.057045713
33	0xbd3a82b5	-0.04553481
34	0x3c32d991	0.01091613
35	0xbd863ecd	-0.06554947
36	0x3cebcd4f	0.028784422
37	0xbd40f6d6	-0.0471104
38	0xbd6fa557	-0.05850729
39	0x3d50833e	0.050906412
40	0xbd71b2b7	-0.059008326
41	0xbd8901b8	-0.06689781
42	0x3d8a7c6c	0.06762013
43	0xbd95a3a7	-0.07306605
44	0xbc51e8db	-0.012811865
45	0xbc85b6f6	-0.016322594
46	0xbd50b4f1	-0.05095381
47	0xbd8ed623	-0.06974437
48	0xbd079142	-0.033097513
49	0x3d427165	0.047471423
50	0xbcf6f00b	-0.030143758
51	0x3d93bfa1	0.07214285
52	0x3b99d649	0.0046947342
53	0x3c8e5e6d	0.01737901
54	0x3c83cf4c	0.016090058
55	0xbd50cc12	-0.050975867
56	0xbc532215	-0.012886544
57	0x3d5250a7	0.051346447
58	0xbdad3e8b	-0.08459195
59	0xbd72969c	-0.059225664
60	0x3dbc35fe	0.09189986
61	0x3d88d5bc	0.066813916
62	0xbc74917b	-0.014927263
63	0x3c821b7f	0.015882252
64	0xbd251a07	-0.040308025
65	0xbd21e220	-0.03952229
66	0xbd9c3bbd	-0.07628582
67	0xbda1eff6	-0.07907097
68	0x3d79a0a2	0.060944207
69	0x3ce32a91	0.027730258
70	0x3d8cb680	0.068707466
71	0x3c35ff52	0.011108236
72	0x3d2f71f5	0.042833287
73	0x3c1a4a1e	0.009417085
74	0x3db6c676	0.08924572
75	0xbc439632	-0.011937665
76	0x3d232fc7	0.039840486
77	0xbd8d6df7	-0.0690574
78	0xbbb0b174	-0.005392248
79	0x3d670fa3	0.056411397
80	0xbc06ed40	-0.008235276
81	0xbbc00b60	-0.005860731
82	0xbcef677d	-0.029224152
83	0xbd357c66	-0.04430809
84	0xbd4a9dac	-0.049466774
85	0xbdac9ae1	-0.08427978
86	0xbd3f2504	-0.04666616
87	0x3ccb5c34	0.02482424
88	0xbc037802	-0.008024218
89	0xbd6bb360	-0.057544112
90	0xbd623850	-0.055229485
91	0xbd34cce3	-0.044140708
92	0xbd290079	-0.041260216
93	0xbd218f76	-0.039443456
94	0xbcc83dff	-0.024443625
95	0xbd9c47d1	-0.076308854
96	0x3d23f700	0.04003048
97	0x3d0d264e	0.03446036
98	0xbd1260cb	-0.03573684
99	0x3d9502a2	0.07275893
100	0x3dd77b44	0.10521558
101	0xbd585a57	-0.05282053
102	0x3de78496	0.11304586
103	0xbca8e024	-0.020614691
104	0xbd78a3ec	-0.060703203
105	0x3c97dfa7	0.018539263
106	0x3cab5705	0.020915518
107	0xbc1c4f25	-0.009540354
108	0xbce62079	-0.028091656
109	0x3a89657f	0.0010482519
110	0x3c80fe03	0.015746122
111	0xbdbae004	-0.09124759
112	0xbdafc75b	-0.08582946
113	0x3c534146	0.01289398
114	0xbd014ed0	-0.031569302
115	0xbd587594	-0.052846506
116	0x3d2ddbc3	0.04244591
117	0x3cd75784	0.026286848
118	0x3cbcf013	0.023063695
119	0x3df0469e	0.11732219
120	0x3a9a2313	0.001175972
121	0xbd12627d	-0.035738457
122	0x3cc903de	0.024537977
123	0xbdd1c551	-0.10242713
124	0xbd115584	-0.035481945
125	0x3d579422	0.052631505
126	0x3d906551	0.070505746
127	0x3bd7edfd	0.0065896497
128	0x3b2c81f3	0.0026322573
129	0xbc03ebba	-0.008051807
130	0x3db2656e	0.087107524
131	0x3c16327d	0.009167311
132	0x3c0bbe1f	0.008529215
133	0xbd9df434	-0.07712594
134	0xbd0c6acb	-0.034281533
135	0xbd36e9d6	-0.044656597
136	0x3d895a19	0.06706638
137	0x3ccb5f77	0.024825795
138	0xbdc81132	-0.09768905
139	0xbdf3fb9f	-0.11913227
140	0xbbe11884	-0.0068693776
141	0xbdb8f6ad	-0.09031425
142	0xbcc70ccc	-0.024298094
143	0xbd9ad2f6	-0.07559769
144	0xbaa094cb	-0.0012251375
145	0xbd0e67df	-0.034767028
146	0x3db97aec	0.090566486
147	0x3bf2a7a9	0.0074052406
148	0xbd2a4834	-0.041572765
149	0x3d42ac5e	0.047527663
150	0x3d24b8e3	0.040215384
151	0xbd79fc8a	-0.061031856
152	0xbccc0b3a	-0.024907697
153	0x3d054529	0.03253666
154	0xbc8fd8fb	-0.017559519
155	0x3d23e870	0.04001659
156	0xbc410ec7	-0.011783308
157	0xbd8e9953	-0.06962838
158	0x3cb0227d	0.02150082
159	0x3ac442af	0.0014973487
160	0xbcc16f4f	-0.023612646
161	0x3c8a7efd	0.016906256
162	0x3cf1cef4	0.029517628
163	0xbd1ae32e	-0.03781431
164	0xbd8534b0	-0.0650419
165	0xbcadff2b	-0.021239838
166	0xbc7e2f0c	-0.015514147
167	0x3c87f48d	0.016596103
168	0xbd32745a	-0.043567993
169	0xbd640a5d	-0.055673946
170	0xbd316a34	-0.043314174
171	0xbd8b177f	-0.06791591
172	0x3d1b6812	0.037941046
173	0xbd7db37f	-0.06193876
174	0xbcfa58db	-0.030559948
175	0x3c721911	0.014776484
176	0xbd56867d	-0.05237435
177	0x3c3c1e89	0.0114818895
178	0xbd943b6f	-0.072378986
179	0x3d7cfbd1	0.06176359
180	0xbcce2e83	-0.025168663
181	0x3da89e4b	0.08233317
182	0x3d849e07	0.06475454
183	0x3d86ea77	0.06587689
184	0xbcfee675	-0.03111575
185	0xbcd6a532	-0.026201818
186	0xbd90f419	-0.07077808
187	0xbda39c4e	-0.07988797
188	0x3d8db844	0.069199115
189	0xbd8334f4	-0.064065844
190	0xbd93ebdc	-0.07222721
191	0xbbcf6edb	-0.0063303537
192	0xbd9cd799	-0.076583095
193	0x3d42029f	0.04736578
194	0xbddd3758	-0.108015716
195	0xbd79c1ca	-0.060975827
196	0xbd44e3e6	-0.048068903
197	0x3d23d244	0.039995447
198	0xbd921c13	-0.07134261
199	0xbd9d1f11	-0.07671941
200	0xbd03c636	-0.03217145
201	0x3c92cc7a	0.017919768
202	0x3aeaa734	0.0017902614
203	0xbd889a4f	-0.06670057
204	0x3b147971	0.0022655393
205	0x3db9f243	0.09079411
206	0x3d5e33de	0.054248683
207	0xbce32d2b	-0.027731499
208	0x3a838c89	0.001003639
209	0x3d5ae7f0	0.05344385
210	0xbd9c5b1e	-0.07634567
211	0x3d0cb6b2	0.03435392
212	0xbbadb5f9	-0.005301234
213	0xbd6fda31	-0.058557693
214	0x3cf1b27f	0.029504059
215	0x3ba0d04d	0.004907644
216	0xbd9debcc	-0.0771099
217	0xbd028d15	-0.031872828
218	0x3d84a32d	0.06476436
219	0x3d3733a1	0.04472697
220	0xbd55611c	-0.052094564
221	0xbc1694f6	-0.0091907885
222	0xbcf293ba	-0.029611457
223	0xbcd882be	-0.02642953
224	0xbd9ff5dd	-0.078105666
225	0xbd11c978	-0.035592526
226	0x3d4cefa3	0.050033223
227	0xbd0b96b8	-0.034079283
228	0x387aed94	5.9825907e-05
229	0x39d7f905	0.0004119353
230	0xbd61f5fb	-0.055166226
231	0xbd82f8be	-0.063951
232	0xbbc23ae6	-0.0059274314
233	0xbb66c057	-0.0035209858
234	0x3d90aa4c	0.070637316
235	0x3d8f97f2	0.07011403
236	0xbc8ac771	-0.016940804
237	0xbd38f7aa	-0.045158066
238	0xbd8c047d	-0.068367936
239	0x3d8f028a	0.06982906
240	0x3ca4bd7c	0.020109884
241	0x3d85ef8d	0.06539831
242	0xbc9c8561	-0.019106569
243	0x3a3a9684	0.00071177655
244	0x3d18ccc4	0.037304655
245	0x3c9a0693	0.018801963
246	0xbdb7ad82	-0.08968641
247	0xbdaf47de	-0.085586295
248	0x3d257f49	0.04040459
249	0x3d729def	0.05923265
250	0xbabfcbfc	-0.0014632936
251	0xbd890e30	-0.06692159
252	0xba1beca5	-0.00059480435
253	0x3d41f78e	0.047355227
254	0x3d297584	0.041371837
255	0xbc251278	-0.010075204

c4.bias f4 [16]
0	0x3cbff30f	0.023431329
1	0xbd8078b9	-0.06273026
2	0x3ad3aaba	0.0016148903
3	0x3b2da9b1	0.002649885
4	0xbb439ea6	-0.00298492
5	0xbd366fc3	-0.044540178
6	0x3d8115b4	0.06302968
7	0xbd91bcb1	-0.07116068
8	0xbd365761	-0.044516925
9	0xbda2302d	-0.07919345
10	0x3ce1968a	0.027537603
11	0xbd5f2408	-0.05447772
12	0x3d0ddf31	0.03463668
13	0xbca18b15	-0.01971964
14	0xbd78010f	-0.060547885
15	0xbd3b5623	-0.045736443

f.weight f4 [10, 256]
0	0x3c68033d	0.014160928
1	0xbc89852e	-0.016787138
2	0xbcb0e83c	-0.021595113
3	0x3aae41f6	0.0013294804
4	0x3d66a384	0.056308284
5	0xbd8460f1	-0.064638026
6	0x3caa668d	0.020800853
7	0x3bb5c3aa	0.0055470066
8	0x3d2b35a2	0.041799195
9	0x3cccae6c	0.024985515
10	0x3d094ae9	0.033518706
11	0xbd7a9b2c	-0.06118314
12	0x3dccfa44	0.10008672
13	0x3de902d4	0.113774925
14	0xbc0f28f4	-0.008737791
15	0xbd8e45f3	-0.069469355
16	0xbd3530f1	-0.044236127
17	0x3caffb42	0.021482114
18	0x3c63ec1c	0.013911273
19	0xbd375ed5	-0.044768173
20	0xbd939779	-0.072066255
21	0x3b28dc65	0.002576613
22	0xbc502461	-0.012703986
23	0xbc117c42	-0.008879723
24	0x3be80f48	0.0070819
25	0xbbd51e25	-0.0065038376
26	0xbd25b097	-0.040451612
27	0x3cb9d78c	0.022685789
28	0x3d42b898	0.047539324
29	0xbd54dae2	-0.051966555
30	0x3d6843ad	0.056705166
31	0x3c99bc00	0.018766403
32	0x3d299b2c	0.04140775
33	0x3ce822cd	0.028336907
34	0xbc517189	-0.012783417
35	0x3d1c6c38	0.038189143
36	0xbc4b23b7	-0.012398652
37	0xbd6882d3	-0.05676539
38	0xbd33ea8f	-0.043924864
39	0xbbd54f08	-0.0065096654
40	0xbc6f95a8	-0.014623083
41	0xbd7c16d6	-0.061545216
42	0x3d33cb3a	0.043894984
43	0x3cb27a3e	0.021786805
44	0xbb840d33	-0.004029894
45	0x3d8d2924	0.068926126
46	0x3c8fef70	0.017570227
47	0x3ce93c0e	0.02847102
48	0xbced6b47	-0.028981818
49	0x3be85153	0.0070897727
50	0x3c5666cd	0.013086033
51	0xbce57958	-0.028011963
52	0xbbbb9e03	-0.0057256236
53	0xbcbc0468	-0.02295132
54	0xbdaee800	-0.08540344
55	0x3c800927	0.015629364
56	0x3c77aa30	0.015116259
57	0xbd680b81	-0.056651596
58	0x3cdf1ddc	0.027235918
59	0xbb45e180	-0.0030194223
60	0x3ce9d2bc	0.028542869
61	0x3a89e939	0.0010521776
62	0xbce0589a	-0.027385999
63	0xbd007838	-0.03136465
64	0xbbd12e62	-0.006383703
65	0x3d0438ca	0.03228072
66	0xbc46a4cb	-0.012124251
67	0x3d741718	0.059592336
68	0xbda686a0	-0.081311464
69	0x3d297a18	0.041376203
70	0x3cd37518	0.02581267
71	0x3db07cac	0.08617529
72	0xbd827fc0	-0.06372023
73	0xbc0faa6e	-0.008768661
74	0x3d0d17cc	0.034446523
75	0xbd5773fb	-0.052600842
76	0x3ca5ab4f	0.020223288
77	0x3b20e6ca	0.0024551624
78	0xbbde6686	-0.006787124
79	0xbcedbf2a	-0.029021818
80	0xbca91c87	-0.020643486
81	0x3ca7ae39	0.020468818
82	0x3d728a80	0.059214115
83	0x3d451062	0.048111327
84	0x3b5fb284	0.0034133503
85	0xbd9da3ba	-0.07697244
86	0x3d483492	0.04887826
87	0x3ced1e85	0.028945217
88	0xbd4fd33c	-0.05073856
89	0xbd2e5978	-0.042565793
90	0xbd877bd0	-0.06615412
91	0x3c1701be	0.009216724
92	0x3d1cee5c	0.038313255
93	0xbc8ce208	-0.017197624
94	0xbc109706	-0.008825069
95	0xbd31d949	-0.04342011
96	0x3c63e16f	0.013908728
97	0x3d0b8960	0.034066558
98	0x3c9dadbe	0.019247886
99	0xba12e556	-0.0005603632
100	0x3c95d79e	0.01829129
101	0x3cf88eeb	0.030341586
102	0xbd737621	-0.05943883
103	0xbc80ffc9	-0.015746968
104	0xbd0710b9	-0.032974932
105	0xbc980101	-0.018555166
106	0xbce79f69	-0.028274255
107	0x3d468c5d	0.048473705
108	0x3cb69696	0.022288602
109	0xbb79dda9	-0.0038126505
110	0xbccdf281	-0.025140049
111	0x39a4aa62	0.00031407463
112	0x3d167f45	0.036742467
113	0x3d5be116	0.053681456
114	0x3ce91eca	0.028457064
115	0xbd004db2	-0.031324096
116	0xbcfc4d13	-0.03079847
117	0xbc09893a	-0.008394534
118	0xbd551b39	-0.052027915
119	0xbd7cdf00	-0.061736107
120	0xbda85e0c	-0.08221063
121	0x3d129547	0.035786893
122	0x3d2422db	0.040072303
123	0x3c3ba001	0.011451722
124	0xbdbda8a8	-0.09260684
125	0xbd0cf5ee	-0.034414224
126	0x3dbef024	0.09323147
127	0x3b95c58b	0.004570668
128	0xbd5c3b85	-0.0537677
129	0xbd92b3a6	-0.071631715
130	0x3d02ee00	0.031965256
131	0xbd35baf8	-0.04436776
132	0xbc8b8f26	-0.017036032
133	0xbc983ddf	-0.01858419
134	0x3d2c3fc9	0.042053018
135	0x3d742822	0.059608586
136	0x3c0d52d2	0.008625703
137	0x3ce103ff	0.027467726
138	0x3d29b642	0.04143358
139	0xb952c933	-0.00020102113
140	0x3d8b164c	0.06791362
141	0x3d1fa453	0.03897507
142	0x3d21350b	0.039357226
143	0xbc2647ea	-0.010148982
144	0xbc64285b	-0.013925637
145	0xbcd9c88f	-0.026584892
146	0xb9273046	-0.00015944344
147	0xbb97b2e4	-0.0046294797
148	0x3d8e86b8	0.06959289
149	0xbd150937	-0.03638574
150	0xbd88f6b6	-0.066876814
151	0x3d8f2886	0.06990151
152	0xbda01210	-0.07815945
153	0x3c9e1efc	0.019301884
154	0x3d9cb318	0.07651347
155	0x3d0df143	0.034653913
156	0xbda9a694	-0.082837254
157	0x3c7c42dc	0.0153968
158	0x3d6d0a6b	0.057871263
159	0x3cee1b12	0.029065643
160	0x3c958558	0.01825206
161	0x3cab7fbf	0.020934938
162	0xbc5440e2	-0.012954922
163	0xbce63508	-0.02810146
164	0xbcb8324e	-0.022484925
165	0xbbb92aae	-0.00565084
166	0xbcee3182	-0.029076342
167	0xbd0aba8b	-0.033869307
168	0xbaacab9f	-0.0013173706
169	0xbd8eeb49	-0.06978471
170	0xbd02db55	-0.031947453
171	0xbcf76624	-0.030200072
172	0xbd4334fc	-0.04765795
173	0x3d31725d	0.043321956
174	0x3c835c19	0.016035127
175	0x3c56fe1c	0.013122108
176	0xbce540c8	-0.027984992
177	0x3d0c28d4	0.034218624
178	0x3c98fd7c	0.018675558
179	0x3dbc294e	0.09187566
180	0x3d8e59a2	0.0695069
181	0x3caf7f8b	0.021423122
182	0xbc254640	-0.01008755
183	0xbd24d513	-0.040242266
184	0xbc9239c4	-0.01784981
185	0x3d1614e5	0.03664102
186	0xbc7a6bdd	-0.015284506
187	0xbdc53e8f	-0.09631073
188	0xbd56b106	-0.052414916
189	0x3d894f06	0.06704526
190	0xbd1556b2	-0.036459632
191	0xbdcf5d4b	-0.10125216
192	0xbc6b4609	-0.014359959
193	0x3cf1c0c8	0.02951087
194	0x3c89db88	0.016828313
195	0x3c70aa55	0.014689048
196	0x3d5996e2	0.05312241
197	0xbce12753	-0.027484572
198	0xbb9e455c	-0.0048300456
199	0xbcb44df7	-0.022009833
200	0xbc8dada3	-0.01729471
201	0x3c9ac0a7	0.018890692
202	0xbd9e0679	-0.07716078
203	0xbc6b0d75	-0.01434647
204	0x3ce7a06d	0.02827474
205	0x3d605be3	0.05477513
206	0xbcfc0a79	-0.030766713
207	0x3bc17475	0.0059037753
208	0xbce185f5	-0.027529696
209	0xbce85982	-0.028362993
210	0x3d3496f1	0.04408926
211	0x3c2dda8b	0.010611187
212	0xbd9bf8eb	-0.07615837
213	0xbce6864f	-0.028140215
214	0xbcbd057e	-0.023073908
215	0x3d48319d	0.04887544
216	0xbd4d66c9	-0.05014685
217	0xbd0b3dcb	-0.033994477
218	0xbc57771c	-0.0131509565
219	0xbb6119f5	-0.0034347747
220	0xbd5ed5a1	-0.05440295
221	0x3d2c80ad	0.042114902
222	0x3c96b8d4	0.01839868
223	0x3cb45702	0.022014145
224	0x3c1d7c8f	0.009612217
225	0xbc7ad240	-0.015308917
226	0xbcf4038e	-0.029786851
227	0x3cc325c0	0.023821712
228	0xbcdb7138	-0.026787385
229	0xbdb86b17	-0.09004801
230	0xbd079f2a	-0.033110775
231	0x3d07c6e1	0.03314865
232	0xbd6dbda0	-0.05804217
233	0xbce2c263	-0.027680581
234	0xbd9de073	-0.07708826
235	0xbc867d72	-0.016417239
236	0xbd869c85	-0.065728225
237	0xbdab9588	-0.0837813
238	0xbda3bb76	-0.0799474
239	0xbc1788e1	-0.009248943
240	0xbca9a11a	-0.020706702
241	0xbb6946b2	-0.0035595116
242	0x3d52bbfc	0.051448807
243	0xbbf390be	-0.007433026
244	0xbc8109b3	-0.015751695
245	0xbd818862	-0.06324841
246	0x3d2ba8d9	0.041909073
247	0x3d21dd11	0.039517466
248	0x3d5c93a3	0.053851735
249	0xbcabc8f0	-0.020969838
250	0xbd85ae81	-0.065274246
251	0x3d53ccd9	0.05170903
252	0x3d9bd45b	0.07608863
253	0xbcdb56c0	-0.026774764
254	0xbd481c57	-0.048855152
255	0xbcbc249b	-0.022966674

f.bias f4 [10]
0	0x3c0cc2d4	0.0085913725
1	0xbd1bc134	-0.03802605
2	0xbbd7f9d9	-0.0065910635
3	0x3d378024	0.04479994
4	0x3d697f97	0.057006445
5	0x3d4a6bdd	0.049419273
6	0xbc2b3ff7	-0.010452262
7	0x3c0fa20f	0.008766665
8	0x3c971a9e	0.01844531
9	0xbd142b9c	-0.0361744
