tests/data/msimple_params.npz (npz, 295094 bytes, 4 tensors)

f1.weight f4 [100, 784]
00000000: 80fe e2b9 5c73 1b3c dbea 093d a836 8fbb
00000010: 1e3b d73c d8aa c4bc 8058 4eba 25f1 afbc
00000020: a266 d43c bc47 4cbc f25f cb3c ae0c 3bbc
00000030: 087f 843b f246 cf3c 3c4d 21bc 6872 c43b
00000040: b369 dbbc f828 2c3c 38e5 c33c 03ba cfbc
00000050: a84b fabc ecde cb3c 73e2 02bd bee5 a2bc
00000060: 00da f738 1e9c 8fbc 6a1e 03bd 58e1 533c
00000070: baba 92bc 80a7 c3bc b893 c1bb bab6 ed3c
00000080: 6ad2 32bc b8e8 14bc 588a b93b 009f 2d3c
00000090: 388a 893b a47d 433c 20af 2abc dcfe 44bc
000000a0: 92cb fa3c 0968 013d 50a0 12bb 108b a13c
000000b0: 9022 85bc 3782 94bc d887 523c a2f6 d23c
000000c0: f864 393c 369b fc3c 0e8b 00bc 800d 86bc
000000d0: 8a69 36bc ee54 abbc 32e9 23bc 6c24 b93c
000000e0: 28b2 2d3c 10ef e3bc c008 4cbc b43c 883c
000000f0: 80d7 a2bb 0ee5 d33c 3ced a93c 183b 653c
00000100: 90bc 9b3b aa95 d93c e76b dabc 78de 02bd
00000110: 6bc1 86bc db65 603c c391 9e3c 0639 70bc
00000120: 1c26 0b3c 8eea 663c fbd5 073c 8dde 12bd
00000130: 70b1 a93b d0e8 82bb 1ae4 88bc 914b fcbc
00000140: 80e6 423a a27a fc3c fc64 99bc a06e 71bc
00000150: 0ac9 b83c 12f1 09bc 64b7 3c3c abcc 103d
00000160: e004 44bc 52bd a73c bde3 10bd 6d21 10bb
00000170: a07c 61bc acf5 b5bb 6297 fa3c 3cd1 de3b
00000180: 6cbb 943c 187e ea3b 7d1d 85bb 5f9b 4a3c
00000190: d687 43bb ef3c bcbb 6c2c f83b 6656 24bc
000001a0: 058a 6e3c 4107 b43b f9ed d0bb a0ff c0ba
000001b0: ee28 c4bc e2a6 b13c e07c 403b 385d 39bc
000001c0: 28d4 863b f078 6a3b ba74 0abd 03f7 053d
000001d0: cb57 cb3c 0ce9 7c3c b48e 83bc b561 b83c
000001e0: 1fd1 a4bc e310 a73c c176 f5bb e250 503c
000001f0: 38ae 9abc e4dd 8d3c 336e b43c f279 e4bc
00000200: 8877 78bc 88c8 48bd 5328 3c3c 52db 3cbc
00000210: f49c 9abb ab57 63bc 33f1 d9bc 202f 1839
00000220: 4ce9 3d3c 3e40 03bd 705d 833c 14a1 2c3c
00000230: dadc f93c a453 723c 4333 0a3d fcd2 913c
00000240: c087 0dbc e804 babb a453 94bc e08f 87bc
00000250: 8052 06bd 5894 ffbc 4ad4 e7ba 4867 8ebc
00000260: c560 2bbd 0d4c ffbc 66fe 96bc 379c c8bc
00000270: a038 b4bc 3a54 1d3c 2502 303c f6bd f83a
00000280: eb2b d7bb 9730 803c 5471 d23c ccdd 1c3d
00000290: bb10 e2bc 0408 cb3c dde5 0d3d 755a 98bc
000002a0: 286d b33c 422f 993c 9e2b ff3c 3bb7 05bd
000002b0: 36b4 3c3c e00d 063d 3514 073d 0bcd 41bc
000002c0: 5035 d83c c132 8e3c 509a 3fbd 9a84 423c
000002d0: e7d0 03bd 9477 35bd 04bf 7abc 0c6d 55bd
000002e0: 06f5 1d3b d7cf b5bc e947 03bb 21a5 3abd
000002f0: b123 e6bc ad53 313c ad65 f93c 0aeb 573c
00000300: c465 e53c b5a8 b83c 67dc 073d c0a6 b9bc
00000310: 207e 6f3b 40f4 90bb e029 21bc 3e61 e43c
00000320: ba12 293c f194 133d 35dc 013c ad0a e43c
00000330: 6527 bb3b c027 713c d4f8 dd3c c22e 883c
00000340: e922 043c 09d6 de3c 38e3 a8bc 0a73 a5bb
00000350: 7b90 57bd f279 15bd b6a8 fbbb 83f8 35ba
00000360: e316 b4bc 7d79 a5bc dff1 ccbc 599f 47bc
00000370: 3827 d4bc c038 72bc 304a 03bd f4ed 1f3c
00000380: e88e c2bc 68a1 84bb 95ff 98bc 06fb 05bd
00000390: e7e7 fc39 8c11 a23c 1aff fabb e94f d53c
000003a0: 04d0 393b 8a8b 02bd 1450 6bbc aa6d ba3c
000003b0: 79f3 9dbc 7285 043c c902 5f3c bd0d 103c
000003c0: 862e 88bc 8042 94bb 0310 b2bb a381 383c
000003d0: 9a57 8b3c 2d63 f9bc 976a 903c 100e 14bd
000003e0: 49a1 5bba 8af3 353c 0064 0dbd dbe5 02bd
000003f0: 02fa df3c 98e0 23bc 3071 91bb 8a57 8dbc
-0.00043295696 0.009487953 0.03367124 -0.004370529 0.026273306 -0.024007246 -0.0007871464 -0.021477291
0.025927845 -0.012468275 0.024826024 -0.011416597 0.0040434636 0.025302384 -0.009845074 0.0059950836
-0.0267838 0.010507815 0.023913011 -0.025357252 -0.030553654 0.02488657 -0.03195424 -0.01988494
0.000118184835 -0.017530497 -0.032011427 0.012932144 -0.017911304 -0.023883581 -0.005907502 0.029017795
-0.010914424 -0.009088688 0.005662244 0.010596991 0.004197385 0.0119318105 -0.01041773 -0.012023654
0.030614648 0.031593356 -0.0022373386 0.01971963 -0.016251832 -0.018128498 0.0128497705 0.02575237
0.011315577 0.03083573 -0.007845653 -0.01636386 -0.011133561 -0.020914521 -0.010004329 0.022600375
0.010601558 -0.027823955 -0.012453258 0.016630508 -0.0049695373 0.025866058 0.020743005 0.01399114
0.004752703 0.026560623 -0.02666278 -0.031950444 -0.01644965 0.013696159 0.019356614 -0.014662033
0.008492973 0.014094008 0.008290763 -0.035856772 0.005178623 -0.0039950386 -0.01671033 -0.030797752
0.000743486 0.030820195 -0.01872491 -0.014735848 0.0225568 -0.008419292 0.011518333 0.035351437
-0.011964053 0.020476017 -0.03537344 -0.002199258 -0.013762623 -0.005552968 0.030589763 0.006799845
0.018155776 0.007156145 -0.004062353 0.012366145 -0.0029835603 -0.0057445685 0.007573655 -0.010030365
0.014559274 0.005494029 -0.006376025 -0.001472462 -0.023945298 0.021686021 0.0029371306 -0.011313729
0.0041146465 0.003577765 -0.033802725 0.03270627 0.024822136 0.015436422 -0.016059257 0.022507528
-0.020119248 0.020393794 -0.007490963 0.012714596 -0.018881902 0.01731772 0.022025203 -0.02789018
-0.015165217 -0.049019367 0.011484223 -0.011526899 -0.0047184173 -0.013875882 -0.02660427 0.00014513405
0.011591267 -0.032043688 0.016035765 0.010536451 0.030500818 0.014790449 0.033740293 0.0178008
-0.008638322 -0.0056768544 -0.01810629 -0.016548097 -0.032793522 -0.031198665 -0.0017687168 -0.017383233
-0.041840333 -0.031164194 -0.018431854 -0.024488552 -0.021999657 0.009602601 0.010742699 0.0018977511
-0.0065665147 0.01564817 0.025688805 0.03829746 -0.027595868 0.024784096 0.034643043 -0.01859782
0.021902636 0.018699292 0.031148728 -0.032645445 0.011517575 0.032728076 0.032978255 -0.011828671
0.026392609 0.017358186 -0.046778023 0.011872435 -0.032181647 -0.04430349 -0.015304331 -0.05210595
0.0024102344 -0.022193832 -0.0020031875 -0.045567635 -0.02809319 0.0108231725 0.03044399 0.013178596
0.028002627 0.022541383 0.033169176 -0.02266252 0.0036543682 -0.004423648 -0.009836644 0.0278784
0.010319406 0.036030713 0.007926037 0.027837122 0.0057114833 0.01471895 0.02709619 0.016623858
0.008064964 0.02720167 -0.020616159 -0.005049114 -0.05262802 -0.03649325 -0.007680024 -0.0006941633
-0.02198357 -0.020199532 -0.025017677 -0.012183988 -0.025897607 -0.014784038 -0.032053173 0.009761322
-0.023749784 -0.0040475614 -0.018676559 -0.032710098 0.00048237966 0.019783758 -0.007659805 0.02603908
0.0028352747 -0.031871356 -0.014362354 0.02275737 -0.019281136 0.0080884565 0.013611504 0.008792338
-0.016623747 -0.004524529 -0.0054340377 0.011261377 0.017009545 -0.030442799 0.017628951 -0.036146224
-0.00083782204 0.0111054275 -0.034519196 -0.03195749 0.027340893 -0.010002278 -0.004438542 -0.017253656

f1.bias f4 [100]
00000000: bbba 08bd b41d dd3c 3ddc 9bbc 8e02 e13a
00000010: a9a1 b33c 0ed3 b43c c7f3 8b3b 4f6a 90bc
00000020: 8e93 073d 29e1 26bc 9dad 01bb ca7a c5bb
00000030: c0b0 27bb a857 04bc f790 df3c e8b4 0f3c
00000040: febb 2a3c b8b5 8bbc 9c96 82bc 84af 71bc
00000050: 91f7 703c dbc1 0abd 9363 ec3c 9be7 b8bc
00000060: a03d 0f3d 6d41 0fbd edcf bd3c 96bf 473c
00000070: 5b0a 54bb b88c 073d f229 853a ac2a 703c
00000080: 19bb b0bb 34f3 00bd 95e6 a6bc 876f 29bc
00000090: 841a c8bb 2bac c3bc 546f bdbc 04fe 32bc
000000a0: 30bd 2e3c add9 0fbd 5add a3bc 7579 983c
000000b0: fa75 7b3c 688f 17bc 1b0d e0bc 61ce cd3c
000000c0: 4a54 173c e29d 093d d13b a4bc 574d c8ba
000000d0: 1897 d53c ed05 0abd 1938 1fbb a8a7 91bc
000000e0: e78c 9cbb 3aed c5bc 1db8 acbc e561 173c
000000f0: b6a0 ea3c 27b2 013d 9a4d dfbb 4b65 bfbc
00000100: 9d8c 5abc 1828 913b 7a63 dcbb 3e3d 86bc
00000110: 70f9 3d3c 68b7 81bc e3ec 0b3d 09c8 5d3c
00000120: a4ae c73b 70b1 6fbc b614 de3b db0e aabb
00000130: d4eb 9c3b e71e 11bd d064 18bc 322a 1bbc
00000140: b8ee 0bbd ed36 413c 0f12 ed3c 6018 423c
00000150: 3d94 f0bc 7b4e d03c d55a e73c 1df2 bbbc
00000160: 603f 4abb 7586 e73c 2364 dc3c c400 273c
00000170: eed8 023c 9b15 83bc b68f 80bc 6eb6 b93c
00000180: 682a 4db8 a01d d8bc a85a 8cbc e636 b8bc
-0.033381205 0.026991703 -0.019025916 0.0017166899 0.021927672 0.022073295 0.004271004 -0.017628817
0.033099703 -0.010185518 -0.001978732 -0.0060266005 -0.002558753 -0.0080775395 0.027290804 0.008771159
0.010420797 -0.017054424 -0.015940957 -0.014751319 0.014707462 -0.03387628 0.028856074 -0.022571376
0.03497088 -0.034974504 0.023170436 0.012191674 -0.0032354805 0.033093184 0.0010159595 0.014658611
-0.0053933975 -0.031481937 -0.020373622 -0.010341532 -0.0061066765 -0.023885807 -0.023124374 -0.01092482
0.010665223 -0.0351197 -0.02000301 0.018612603 0.015347952 -0.009250499 -0.02735 0.025122823
0.009236405 0.033597834 -0.020048054 -0.0015281838 0.026073024 -0.033697058 -0.0024294911 -0.01778014
-0.004777539 -0.02416097 -0.021083886 0.0092396485 0.028641086 0.03166404 -0.0068146707 -0.02336373
-0.013339189 0.0044298284 -0.0067257257 -0.016386624 0.011595115 -0.015834525 0.03416146 0.013536462
0.006093817 -0.014629707 0.0067773713 -0.005189759 0.004788855 -0.03542986 -0.009301379 -0.009470509
-0.034163207 0.0117928805 0.028939275 0.011846632 -0.02936756 0.025428047 0.028241554 -0.022942597
-0.0030860528 0.028262356 0.026903218 0.010193054 0.00798629 -0.016001513 -0.015693527 0.022669997
-4.8915303e-05 -0.026381314 -0.017133072 -0.022487115

f2.weight f4 [10, 100]
00000000: 8065 7fbd 105f 22bd 3b98 c33d dbc3 6bbb
00000010: 12bf 75bd 9481 1f3d 15aa b6bd de6c 81bc
00000020: be69 0abc 92d9 9e3d d716 933d 4149 83bd
00000030: 0a5e db3b fb99 f8bc 37b3 6bbd af49 c3bd
00000040: 55fb 1f3d 2df3 1f3d cbd8 913d 331e f3bc
00000050: 7b5a 5fbd 6140 18be 5992 66bc 1b5a b0bc
00000060: 62bf bc3d 158e d3bc 68fb 333d d676 8c3c
00000070: 86d9 eabc 102c 7cbd e34b 49bd c716 4f3d
00000080: 9990 b0bd 363c 96bc 8f17 dfbc 113d 7abd
00000090: 586c d5bd 6fe4 0ebd 03b8 de3c 7bb0 85bd
000000a0: d90c 833d b266 46bd fe2b debd abd9 aebc
000000b0: 93f2 c03c 2cee 6bbd e48a 5e3c 8fe0 e2b9
000000c0: 0046 48bd 49d7 0e3d e1dd 1e3e 3347 bb3d
000000d0: 18e2 863d 3bf3 2fbd 2e33 fdbd d656 3e3d
000000e0: 02a5 2cbe 3a3a bcbc b861 0c3d 4584 173b
000000f0: d7e9 d0bd 4c80 88bd 4e86 20bd c082 a1bc
00000100: 8e2e 4abd 4ee3 acbd 97b6 c13c 171b 4ebe
00000110: d002 cb3d e260 6bbd 861d 70bc 400e 6cbd
00000120: 60d3 11bd 75ba 7fbc 11e9 a9bd 335c 813b
00000130: 3265 9abd eb60 3abe a798 f03d 46c1 68bd
00000140: 3e82 1f3e 7568 843d 346a 26bd d17d aebc
00000150: c219 573e be96 a4bc c708 8cbd b1d2 57bd
00000160: 1446 af3d 4e30 55bd 2b42 e53d fe3e 84bb
00000170: a5ef 98bc dc52 1a3b 05a6 aabd e86c adb9
00000180: c233 093d fe23 893d 78eb afbd 8554 1ebd
00000190: 6246 aa3d 9d8c c1bc 3dde bfbc 56c7 353d
000001a0: 574e 1bbc 1456 9f3c 1e21 0abe 6024 f83c
000001b0: 6a09 c03c f728 5abc 71dd 0fbd dc1f e6bb
000001c0: 31b0 363d e63a a8ba 6a60 8f3d f329 413d
000001d0: 1b6e fd3c eaf3 023e 7abc bfbd deec c83c
000001e0: 02f4 ef3d b1f2 54bb f655 adbb 7c73 a7bd
000001f0: 6e6c 383c 5c35 563c 7ab6 993d 5ff7 64bd
00000200: 7539 493d e0f8 af3c 9eff 46bd c803 87bd
00000210: e3a2 833d ce7d 71bd fa67 e6bb 696b c53d
00000220: d94f 73bb 5a58 a23d 16f5 273e a4ad 49bd
00000230: 49dd 44bd 672a 9a3d 08de 393d dcf1 91bd
00000240: e44b 92bd e01d 423d 26a7 383d a399 b4bd
00000250: acdd 973d 10dd 723d 4a07 82bc 0040 f63a
00000260: 1b2c 603d 627a e53c 1f92 88bc c581 2fbd
00000270: 63a2 553d eb71 a1bd df6a 0ebc e37e db3c
00000280: 8ae1 063d baaa e03c 2a9c 8e3d f6cd 033e
00000290: aa64 d63c f04a 9dbd 5755 2b3e d681 af3c
000002a0: 9213 27bd d04d acbd 3b87 233c 5a5e 683d
000002b0: a7f0 103d db55 e03c 960b 18bc 6478 65bd
000002c0: 1d8f 9f3d 3f7d d63d 9b2d b63d fb85 053d
000002d0: 7004 bdbe dd33 fdbc 3e1c 0c3d 9fe3 cebd
000002e0: ee4e 29bc e4eb ee3d c37b 673d 8666 aebd
000002f0: c6c5 783d e035 c83d d196 3dbd 5d39 1ebd
00000300: b764 bbbd 5edc b23c 2690 8a3d dc87 05bd
00000310: 5d98 2ebd 1fbc a0bd a9e3 4e3d 7186 943c
00000320: 39fc 4fbd 186e 203c 5084 653c 621d cebb
00000330: 11ef 7ebd 1739 c33d 3108 fcbd c4c0 95bc
00000340: 3fbd ac3c 97cf 163d dd89 c0bd 8f5a 4e3d
00000350: ed1c 33bd 86d8 75bd 3cfa 193b 1449 8cbb
00000360: 78e3 a43d 5c72 a6bc e74b c03d 310e 3dbd
00000370: 748f 2fbc 59aa 26be 2395 a1bc afd2 99bd
00000380: f4c5 5bbe 93c2 b63c a430 b9bd d306 90bd
00000390: 472b 01be 288c 89bd 61c8 23bd 6ee8 463d
000003a0: 6518 303c 9093 b4bc 1876 4b3a 9861 60bd
000003b0: df5e 22bd c018 35bd 375a cebd 68b9 00bd
000003c0: ad4a 9ebd 7fca adbd 4c07 98bd a36e 253d
000003d0: b504 cebe c543 f63d 04ed 2cbe 0c46 ccbc
000003e0: cf80 21bd 8d85 b33d 5e0a a2bd 8ab0 f83d
000003f0: bc92 9abd 2ee6 cebb 27fe b9bd add3 7e3d
-0.062352657 -0.03964144 0.0955052 -0.0035974893 -0.059996672 0.038941935 -0.08919159 -0.015798982
-0.008448062 0.07756342 0.07182091 -0.064104564 0.00669456 -0.030346861 -0.05754396 -0.095355384
0.03905805 0.03905027 0.07121428 -0.029677486 -0.05452965 -0.14868309 -0.014072978 -0.02152734
0.09216191 -0.025824586 0.04394093 0.01714651 -0.028668176 -0.06156546 -0.049144637 0.05055883
-0.0862133 -0.018339258 -0.027232913 -0.061093394 -0.104210556 -0.03488582 0.027187353 -0.065278016
0.06398935 -0.04843778 -0.108482346 -0.021344027 0.023553168 -0.057600185 0.013582919 -0.00043273388
-0.048894882 0.03487328 0.15514328 0.091444395 0.06586093 -0.042956572 -0.123632774 0.046469532
-0.1685982 -0.022976983 0.03427288 0.002311961 -0.102008514 -0.06665096 -0.039190583 -0.019715667
-0.049360804 -0.084417924 0.023646636 -0.20127521 0.09912646 -0.05746544 -0.014655476 -0.057630777
-0.035601974 -0.01560842 -0.08296407 0.0039477586 -0.07538833 -0.18201034 0.11747866 -0.056824945
0.15577027 0.06465236 -0.040628627 -0.021300228 0.2100592 -0.02009141 -0.06837612 -0.052691165
0.08558288 -0.05204802 0.11194261 -0.0040358296 -0.018668959 0.0023547923 -0.08332447 -0.00033078273
0.033496626 0.06696318 -0.08589834 -0.038654823 0.08314206 -0.02362662 -0.023421401 0.044379555
-0.009479127 0.019450225 -0.13489196 0.030290782 0.023441989 -0.013315431 -0.035123292 -0.007022841
0.044601623 -0.0012834936 0.070008114 0.047159147 0.030936291 0.12788358 -0.09362121 0.02452701
0.11716463 -0.0032493288 -0.0052897884 -0.08176324 0.01125632 0.013074245 0.07505508 -0.055899974
0.04912706 0.021480978 -0.04858362 -0.06592518 0.064275526 -0.058957867 -0.007031438 0.096396275
-0.003712645 0.07927008 0.16402087 -0.049237862 -0.048062596 0.07527619 0.04537776 -0.07126209
-0.07143381 0.047391772 0.04508128 -0.088183664 0.074153274 0.059292853 -0.015872616 0.0018787384
0.054729562 0.028012458 -0.016671238 -0.042848367 0.052156817 -0.07883056 -0.008692472 0.026793903
0.032929935 0.027425159 0.0696338 0.12871537 0.026171047 -0.07680309 0.16731773 0.021424215
-0.040790148 -0.08413279 0.009980972 0.056730606 0.035385754 0.02738469 -0.009280106 -0.056023017
0.077909686 0.104731075 0.08895417 0.032598477 -0.36917448 -0.03090852 0.03420662 -0.10102009
-0.01033376 0.11666086 0.056514513 -0.085156485 0.060735486 0.09775901 -0.046286408 -0.038628925
-0.09150069 0.021833595 0.067657754 -0.03260027 -0.042625774 -0.07848381 0.050510082 0.018130513
-0.050777648 0.009791873 0.014008597 -0.006290124 -0.06223971 0.095323734 -0.1230625 -0.018280394
0.021086333 0.036819067 -0.09401295 0.050379332 -0.043728758 -0.060020946 0.0023495099 -0.0042811725
0.08051199 -0.020318203 0.09389477 -0.046156112 -0.010715354 -0.1627592 -0.019724434 -0.07510888
-0.21462232 0.022309577 -0.090424806 -0.070325516 -0.12614165 -0.06716186 -0.039986018 0.048561506
0.010748004 -0.02204302 0.0007761433 -0.054780573 -0.039641257 -0.044213057 -0.10075801 -0.031426817
-0.07729087 -0.08485889 -0.07423267 0.040388715 -0.40237966 0.12024645 -0.1688729 -0.024935745
-0.039429482 0.08765707 -0.07912134 0.12143047 -0.075475186 -0.0063140607 -0.09081679 0.06221359

f2.bias f4 [10]
00000000: e48b 62be 3145 c3be adc1 293c 1b09 843d
00000010: 6d3c fbb9 22e4 07be 10e7 55bd f47d 3fbe
00000020: b495 123f 65e4 9a3e
-0.22123677 -0.38138726 0.010361117 0.06447049 -0.0004791947 -0.1327062 -0.05222231 -0.18700391
0.5725968 0.30252376
